ddpm_model.pth (torch, 678886 bytes, 6 tensors)

weight f4 [256, 200]
0	0x3c1ee000	0.00969696
1	0x3cfca50c	0.03084042
2	0x3cddf7d4	0.027095713
3	0xbd77510c	-0.060380027
4	0x3bc2a7d0	0.005940415
5	0x3d6a72e2	0.057238467
6	0xbcd96acc	-0.026540183
7	0xbb723ac0	-0.0036961287
8	0xbd825583	-0.06363966
9	0xbd46d3a2	-0.048541673
10	0xbca89aca	-0.020581622
11	0x3b177de0	0.0023115799
12	0x3ad4b600	0.0016228557
13	0xbd06c205	-0.032899875
14	0x3c3f9b38	0.011694722
15	0xbc39d69c	-0.011342671
16	0xbd164749	-0.036689077
17	0x3d12061e	0.035650365
18	0x3cc931c8	0.02455987
19	0x3b8a9540	0.004229218
20	0x3d7a0486	0.06103947
21	0x3cc0aa60	0.023518741
22	0xbd288382	-0.04114104
23	0xbd6549f0	-0.055978715
24	0x3bec2740	0.0072068274
25	0xbc9c6e40	-0.01909554
26	0xbc6f700c	-0.014614116
27	0xbd5cb266	-0.05388107
28	0x3c268360	0.010163158
29	0xbd5211a8	-0.05128637
30	0xbd1c8866	-0.038216017
31	0x3cd8d9e8	0.026471093
32	0x3ce825c4	0.02833832
33	0x3b70ed40	0.0036762506
34	0xbce6a400	-0.028154373
35	0x3d4ccb68	0.04999867
36	0xbd82498a	-0.06361683
37	0xbd541a6c	-0.05178301
38	0x3d837ccd	0.06420288
39	0xbd0e296b	-0.034707468
40	0x3c0f2158	0.008735977
41	0xbd7cf5bc	-0.061757788
42	0xbc928a4c	-0.01788821
43	0xbd1598e5	-0.036522765
44	0x3cc429f8	0.023945794
45	0xbc819b14	-0.015821017
46	0x3d2f0374	0.042727903
47	0x3c641ff0	0.01392363
48	0x3d5deba6	0.05417981
49	0xbd7d25cd	-0.061803628
50	0x3ba8cd20	0.005151406
51	0x3d69e592	0.0571037
52	0xbd6cdd81	-0.05782843
53	0xbd369ff5	-0.04458614
54	0xbd7ccefe	-0.06172084
55	0x3d8aa089	0.06768901
56	0xbccd9886	-0.025097143
57	0x3d448d90	0.047986567
58	0xbcfc70b4	-0.03081546
59	0xbd57e0cf	-0.05270463
60	0xbcbce35c	-0.023057632
61	0x3b6e7140	0.003638342
62	0x3cc405ec	0.023928605
63	0x3a649880	0.0008720234
64	0x3d8a147b	0.067421876
65	0xbcf8b24e	-0.03035846
66	0xbcdfefc0	-0.027336001
67	0x3d7e486a	0.06208078
68	0xbd8c16ad	-0.068402626
69	0x3d3b1666	0.045675658
70	0xbcbb0a88	-0.02283217
71	0xbc09826c	-0.008392911
72	0x3d8bc72d	0.06825099
73	0x3d81cbc9	0.06337697
74	0x3d52e968	0.051492125
75	0xbc51e954	-0.012811977
76	0xbd3dfe7c	-0.046385273
77	0x3d748386	0.059695743
78	0xbc812f12	-0.015769515
79	0x3d8f1b1d	0.06987593
80	0x3d852787	0.0650168
81	0xbc2647b8	-0.010148935
82	0x3c4091d0	0.011753514
83	0xbd652cd6	-0.055950962
84	0xbd058912	-0.032601424
85	0xbc97a4f6	-0.018511277
86	0x3a6d8200	0.0009060204
87	0xbd08004c	-0.033203408
88	0xbca422f0	-0.02003619
89	0x3d8e4bdf	0.06948065
90	0xbd396b27	-0.045268204
91	0xbd809a69	-0.062794514
92	0xbd2e63f0	-0.042575777
93	0x3d8d4917	0.068987064
94	0xbce0492e	-0.027378645
95	0x3c89dc24	0.016828604
96	0xbc533880	-0.012891889
97	0x3ceba5ac	0.028765522
98	0xbb8df430	-0.004332088
99	0x3d14fcf8	0.036374062
100	0xbd21557e	-0.039388172
101	0x3d87ef7d	0.06637476
102	0xbd85da9f	-0.06535839
103	0xbd4e2ffc	-0.05033873
104	0xbcafab6e	-0.021444049
105	0x3c6f1698	0.014592789
106	0xbb569920	-0.0032745078
107	0xbd7d3d92	-0.061826296
108	0x3d8b737b	0.068091355
109	0xbc71633c	-0.014733132
110	0x3d8882bb	0.0666556
111	0xbd28353e	-0.0410664
112	0xbd067346	-0.032824777
113	0xbc81af56	-0.015830677
114	0x3d009902	0.03139592
115	0x3d5b5bfc	0.05355452
116	0x3d2a11da	0.04152093
117	0xbd632478	-0.0554547
118	0x3d8237ef	0.06358325
119	0x3d7344ca	0.059391774
120	0xbd2acdca	-0.041700162
121	0x3d40d9f8	0.04708287
122	0xbd828093	-0.0637218
123	0x3d42d5fe	0.04756736
124	0xbd5c8a78	-0.05384299
125	0x3d84f203	0.064914726
126	0xbd86a510	-0.06574452
127	0xbb901360	-0.004396841
128	0xbce79e60	-0.028273761
129	0xbae727c0	-0.0017635748
130	0x3d3a9d7e	0.045560353
131	0xbce56ec0	-0.028006911
132	0xbcc604aa	-0.024172146
133	0x3c992ef0	0.01869914
134	0x3d40ae3a	0.047041155
135	0xbc043e38	-0.008071475
136	0xbce7b250	-0.028283268
137	0x3ceb5a74	0.028729655
138	0xbc8748e4	-0.01651425
139	0xbd6c67fb	-0.05771635
140	0xbbcf5ba0	-0.006328061
141	0xbd2e5559	-0.042561863
142	0xbd1a2f2c	-0.037642643
143	0xbd71b84e	-0.059013657
144	0x3d7a7a82	0.06115199
145	0x3d3f9bf6	0.046779595
146	0x3b3cbd80	0.0028799474
147	0x3c3cf7c8	0.011533685
148	0xbd83c8eb	-0.064348064
149	0x3b97e860	0.0046358556
150	0x3d805c71	0.06267632
151	0xbca214a0	-0.019785225
152	0xbd4303c2	-0.047611006
153	0x3d3376b4	0.043814376
154	0xbd44533e	-0.04793095
155	0x3d13457e	0.035954945
156	0xbced3b6c	-0.028958999
157	0xbd8c902f	-0.06863438
158	0xbd04a415	-0.032383043
159	0xbd1c9ae6	-0.03823366
160	0x3b8dc300	0.0043262243
161	0xbcc98616	-0.02460007
162	0x3c0279f0	0.0079636425
163	0x3cea852c	0.028627954
164	0xbce342bc	-0.027741782
165	0x3c5df0b8	0.013546161
166	0x3d850675	0.06495372
167	0x3d5fd78e	0.05464893
168	0x3d02d3ba	0.0319402
169	0x3d73dfea	0.059539713
170	0xbc042a30	-0.008066699
171	0xbd8b6d11	-0.06807912
172	0xbceb8dd6	-0.028754156
173	0x3d678bd2	0.056529827
174	0x3d892627	0.0669673
175	0xbd66d8b1	-0.056358997
176	0xbcc8d4ac	-0.024515472
177	0x3d17c8be	0.037056677
178	0xbc91c9ee	-0.017796483
179	0x3ca5106c	0.020149432
180	0x3b6ca020	0.0036106184
181	0x3c38d2e8	0.011280753
182	0x3d242eb8	0.040083617
183	0x3d858401	0.06519318
184	0xbcf1e036	-0.029525857
185	0xbd38672d	-0.04502027
186	0xbc1d01b0	-0.009582922
187	0xbd7dfd44	-0.06200911
188	0xbb574180	-0.0032845438
189	0x3d877be1	0.06615425
190	0xbc9d4998	-0.019200131
191	0xbd0c5b63	-0.03426684
192	0xbd4b4d9e	-0.04963457
193	0x3d3d7412	0.04625327
194	0xbc60459c	-0.013688471
195	0xbd256b58	-0.040385574
196	0x3cb45c64	0.022016712
197	0x3d0d3864	0.034477606
198	0xbbb475b0	-0.0055071935
199	0xbd51415e	-0.05108773
200	0xbd7c1446	-0.06154277
201	0x3d07cbca	0.033153333
202	0xbd359d63	-0.04433955
203	0xbd1641e7	-0.036683943
204	0x3d179cfc	0.037014946
205	0xbd43c606	-0.04779627
206	0xbcc50cae	-0.024053898
207	0xbccf21b6	-0.02528463
208	0x3ca418ac	0.020031296
209	0xbd59320c	-0.053026244
210	0xbcdf0d0c	-0.0272279
211	0x3ca9889c	0.020695023
212	0x3cb4d4c8	0.022074118
213	0x3d0dff28	0.034667164
214	0xbd8498ac	-0.06474432
215	0xbcdf326c	-0.027245723
216	0x3c2af270	0.010433778
217	0xbd2bf0b8	-0.041977614
218	0x3d0439d6	0.03228172
219	0x3c9caa38	0.019124135
220	0x3cce3fe0	0.025176942
221	0xbcc8cdde	-0.024512228
222	0x3d8150af	0.06314217
223	0x3d3a8b12	0.045542784
224	0xbcd451b2	-0.025917862
225	0x3d5bdb8e	0.05367618
226	0xbd402b76	-0.046916448
227	0x3cdb743c	0.026788823
228	0xbca2784e	-0.019832756
229	0x3b7e3cc0	0.0038793534
230	0x3d47411e	0.048646085
231	0x3d3c0c84	0.045910373
232	0xbcd4d700	-0.025981426
233	0x39db1900	0.00041789562
234	0x3bf86e10	0.00758148
235	0x3d33dab0	0.04390973
236	0xbcb945c2	-0.02261627
237	0x3d583ce8	0.05279246
238	0xbbbbd2f0	-0.005731933
239	0xbd725233	-0.059160423
240	0xbd63f7c3	-0.055656206
241	0xbd65fb3a	-0.05614779
242	0x3bd63480	0.00653702
243	0xbce2026e	-0.02758905
244	0x3b29a6c0	0.0025886744
245	0xbd8ac473	-0.06775751
246	0x3d41dbb6	0.047328673
247	0xbd666fd1	-0.05625898
248	0xbcffcbf6	-0.031225186
249	0xbd83fad0	-0.06444323
250	0x3d703116	0.058640562
251	0xbb243aa0	-0.0025059357
252	0x3d2876d8	0.041128963
253	0x3d7200da	0.059082843
254	0xb9c9fa00	-0.00038523972
255	0xbd5cdeb1	-0.053923313

bias f4 [256]
0	0xbcdebfd0	-0.027191073
1	0xbcb823ee	-0.02247807
2	0x3e003bcf	0.12522815
3	0x3c4bc4fb	0.0124371005
4	0xbd3a4c72	-0.04548306
5	0x3ccbdd8c	0.024885915
6	0xb92d7036	-0.00016540368
7	0xbd065d8c	-0.032804057
8	0xbd4f16b5	-0.050558764
9	0x3b9085f0	0.004410498
10	0x3d1ca4ca	0.038243093
11	0xbd1957ac	-0.037437126
12	0xbd148b7b	-0.03626583
13	0xbd15461a	-0.036443807
14	0x3cdeb31c	0.027185015
15	0x3d4d8bf7	0.05018231
16	0x3c81a823	0.015827244
17	0x3b56ef40	0.0032796413
18	0xbcc7ca83	-0.024388557
19	0xbc0a2bf3	-0.00843333
20	0x3b00b96b	0.0019641768
21	0x3d428610	0.047491133
22	0x3c4d3d12	0.012526767
23	0x3dabf53b	0.083963834
24	0xbc05be88	-0.008163102
25	0xbd216c5f	-0.03940999
26	0x3d2620fe	0.040558808
27	0x3cec2e38	0.028830633
28	0x3e2be41d	0.16786237
29	0x3d474a0b	0.048654597
30	0x3d58015a	0.052735664
31	0x3d26b640	0.04070115
32	0x3d759a92	0.059961863
33	0x3ca06884	0.019581087
34	0xbc6a9a9c	-0.014319088
35	0xbd7a1b15	-0.061060984
36	0x3c2a3e29	0.010390797
37	0xbd81faa6	-0.063466355
38	0x3d32b63b	0.04363082
39	0xbce9787d	-0.028499836
40	0x3d1ba4fc	0.03799914
41	0x3bb50d4e	0.0055252677
42	0x3ce36d08	0.027761951
43	0x3d1b1124	0.037858143
44	0xbcb5714d	-0.022148753
45	0xbcee7246	-0.029107224
46	0xbd83a8a8	-0.06428653
47	0xbd28a47c	-0.04117249
48	0xbcb94cea	-0.022619683
49	0x3d1973f2	0.03746409
50	0xbd52f648	-0.051504403
51	0x3c63c16a	0.013901094
52	0xbcb79db4	-0.022414066
53	0x3d4cf178	0.05003497
54	0x3df0ca25	0.11757306
55	0xbd373084	-0.044724002
56	0x3c81772e	0.0158039
57	0xbcfb95cc	-0.030711077
58	0x3e41606f	0.18884443
59	0xbcdcf84d	-0.026973868
60	0xbcd7a36c	-0.026323043
61	0xbcc92c34	-0.02455721
62	0xbd02261f	-0.031774636
63	0xbd1126b4	-0.0354373
64	0x3b2442ec	0.0025064303
65	0x3cb8c5a6	0.022555184
66	0x3cd0359a	0.025416184
67	0xbd80f6a3	-0.06297042
68	0x3da84ec8	0.08218151
69	0xbce50492	-0.02795628
70	0xbd232990	-0.03983456
71	0x3d41689a	0.047218896
72	0x3d08dda8	0.033414513
73	0xbc53596d	-0.012899739
74	0xbcfd15d8	-0.030894205
75	0x3ca2e1f8	0.01988314
76	0x3d8ee5b7	0.069774084
77	0xbb832f90	-0.0040034726
78	0xbd3f0cc4	-0.046643034
79	0xbd352eb9	-0.04423401
80	0x3c8c7ba9	0.01714881
81	0x3db3a0f4	0.08770934
82	0x3bf1c320	0.007377997
83	0xbe590ce1	-0.21196319
84	0x3dc8cd2c	0.098047584
85	0x3c364d28	0.011126794
86	0x3d709592	0.05873639
87	0x3d96c0bc	0.0736098
88	0xbd44fa35	-0.04809018
89	0xbcd183d2	-0.025575552
90	0x3d3c9dd5	0.046048958
91	0xbb019120	-0.001977034
92	0x3d214f7e	0.03938245
93	0x3d7603ff	0.060062405
94	0x3dc6aacd	0.097005464
95	0xbcca703b	-0.024711719
96	0xbd12df81	-0.03585768
97	0xbcc8dd63	-0.024519628
98	0x3d7261da	0.05917535
99	0x3c9b478e	0.018955018
100	0x3cd39303	0.025826937
101	0x3cdf5b44	0.027265199
102	0xbd888219	-0.06665439
103	0xbd4eb55a	-0.05046592
104	0xbcac983e	-0.021068688
105	0xbd8c55e2	-0.06852318
106	0xbcbd8199	-0.023133086
107	0xbd5424f8	-0.05179307
108	0x3be0de81	0.006862462
109	0xbd8745bd	-0.066050984
110	0xbd971032	-0.07376136
111	0xbd9443f9	-0.07239527
112	0xbc9a407a	-0.018829573
113	0x3d83f341	0.064428814
114	0xbd2e6274	-0.04257436
115	0x3c93dac0	0.018048644
116	0x3d55ca48	0.052194864
117	0x3d9228d8	0.071366966
118	0xbd6706e8	-0.05640307
119	0x3d4f06b7	0.050543513
120	0x3d6c5b1d	0.05770408
121	0x3ce2df30	0.027694315
122	0xbd315254	-0.043291405
123	0x3d1309c1	0.035897974
124	0xbba17997	-0.0049278247
125	0x3d299b52	0.04140789
126	0xbd5b6f26	-0.053572796
127	0x3b3fe400	0.0029280186
128	0xbd05b952	-0.03264744
129	0xbd719464	-0.058979407
130	0x3d86542b	0.065590225
131	0x3d2bc01e	0.041931264
132	0x3d71bfa5	0.059020657
133	0x3c9d22a0	0.01918155
134	0x3d501060	0.050796866
135	0xbd6ced6c	-0.05784361
136	0xbcf8bc9b	-0.030363372
137	0xbd7cbf75	-0.061706025
138	0xbd06fabf	-0.032953974
139	0x3d8035eb	0.06260284
140	0xbd40948e	-0.047016673
141	0xbc9dd45a	-0.019266296
142	0x3d36628d	0.04452758
143	0xbd87616d	-0.06610379
144	0x3d2e7ad4	0.042597607
145	0xbd34ef24	-0.044173375
146	0x3d0d0ce8	0.034436136
147	0xbcc55bb4	-0.024091579
148	0xbd6a66c0	-0.057226896
149	0x3d8f3349	0.06992204
150	0xbc31bc10	-0.01084806
151	0x3a48b900	0.00076569617
152	0xbbc214ad	-0.005922875
153	0xbc62985d	-0.013830272
154	0x3d37268a	0.044714488
155	0xbd19b2b5	-0.037523944
156	0x3c0c234a	0.008553335
157	0x3d9a25cf	0.07526743
158	0x3b85d1a0	0.004083827
159	0xbd780fa7	-0.060561802
160	0xbd4b6a1a	-0.049661733
161	0xbc69d5f0	-0.014272198
162	0x3d1dbf89	0.03851274
163	0x3d895855	0.06706301
164	0xbd4db249	-0.050218854
165	0xbd9964a3	-0.07489898
166	0xbc712a7c	-0.014719602
167	0xbd7c5e4c	-0.061613366
168	0x3c129533	0.008946705
169	0xbc9a24b2	-0.018816326
170	0x3d6d785a	0.057976104
171	0x3ecb25ae	0.39677185
172	0xbd0319de	-0.03200709
173	0xbc714246	-0.0147252735
174	0xbd322959	-0.043496463
175	0x3d375459	0.044758175
176	0xbd116460	-0.035496116
177	0x3d35992d	0.044335533
178	0x3bd90a6a	0.006623556
179	0x3d62f9b4	0.055413917
180	0x3ca47af8	0.020078167
181	0x3d900149	0.07031495
182	0x3d280183	0.041017067
183	0x3d72d009	0.05928043
184	0xbd006a97	-0.031351652
185	0x3e9ca397	0.3059356
186	0xbdbf9bc8	-0.09355885
187	0xbd891e22	-0.066952005
188	0x3d54f864	0.051994696
189	0xb8f482a3	-0.0001165916
190	0xbcf8e36d	-0.030381883
191	0x3e9a0063	0.3007842
192	0x3cdaf765	0.026729295
193	0xbcc0b102	-0.023521904
194	0xbd11e5db	-0.035619598
195	0xbcec563e	-0.028849717
196	0xbd42b8e4	-0.047539607
197	0x3df15141	0.11783076
198	0xbc975ceb	-0.018476924
199	0x3cba7336	0.022760015
200	0xbd020dc0	-0.031751394
201	0xbb199d80	-0.0023439825
202	0xbcd72cb9	-0.026266443
203	0xbc9ff60c	-0.019526504
204	0xbd5a71b5	-0.053331096
205	0x3d2a3c98	0.041561693
206	0xbd646f90	-0.055770457
207	0xbd712057	-0.058868732
208	0xbd77301e	-0.060348623
209	0xbd61076c	-0.05493872
210	0x3b5ce4cc	0.003370571
211	0xbd187cce	-0.037228398
212	0x3c679fd0	0.014137223
213	0xbd9f00bb	-0.07763811
214	0x3d0d9808	0.034568816
215	0x3d47c8fa	0.04877565
216	0x3d7b3562	0.061330207
217	0x3ce44fde	0.027870115
218	0xbd64130d	-0.05568223
219	0x3d5577aa	0.052116074
220	0x3d87c29f	0.06628918
221	0x3d089966	0.033349417
222	0xbb18d9e0	-0.0023323223
223	0xbdacba4c	-0.08433971
224	0xbc396285	-0.011314993
225	0x3e1f773c	0.15572828
226	0xbd1631d3	-0.03666861
227	0x3d798fec	0.06092827
228	0xbad17df6	-0.0015982974
229	0xbc90b6b7	-0.01766525
230	0xbd445bb6	-0.047939025
231	0xbcb81ad4	-0.02247373
232	0x3d1a09e3	0.037607085
233	0x3d828151	0.063723214
234	0x3d0ddb24	0.034632817
235	0x3cad63c9	0.021165745
236	0xbd3533ba	-0.044238783
237	0x3e93ae1c	0.28843772
238	0xbd4c133c	-0.04982303
239	0xbd6d2888	-0.05789998
240	0x3ccd8280	0.025086641
241	0x3cdca690	0.026934892
242	0x3c8e500b	0.017372152
243	0xbd1af8a2	-0.03783477
244	0x3d31f41b	0.043445688
245	0x3c6bff58	0.01440414
246	0xbd5fa2e5	-0.054598708
247	0xbd6ae8d6	-0.057350956
248	0xbd6658fa	-0.0562372
249	0x3e405231	0.18781354
250	0x3d0677a1	0.03282893
251	0xbcc31a07	-0.023816122
252	0x3e810dce	0.25205845
253	0xbbe3d760	-0.006953165
254	0xbd32d295	-0.043657858
255	0xbcf60fb6	-0.030036788

weight f4 [256, 256]
0	0x3d6c28c0	0.05765605
1	0x3c8c5c94	0.017133988
2	0xbcaf5b93	-0.02140597
3	0x3cf7c75f	0.030246435
4	0x3d2f057d	0.042729843
5	0xb93816eb	-0.00017556145
6	0x3d8467eb	0.06465133
7	0x3ce295e5	0.027659366
8	0xbc940d97	-0.018072886
9	0x3d13251a	0.035924055
10	0x3ca69fe0	0.020339906
11	0x3d3acb0e	0.045603804
12	0xbb0bca00	-0.0021330118
13	0x3ce5a418	0.028032348
14	0xbcb14f2c	-0.021644197
15	0xbd24ff16	-0.04028233
16	0x3c36f6fe	0.011167286
17	0x3d6a49aa	0.057199158
18	0x3d34e734	0.044165805
19	0xbd884432	-0.06653632
20	0xbc11696a	-0.00887523
21	0xbd0273a2	-0.031848557
22	0xbd44bcca	-0.048031606
23	0x3d00fd77	0.031491723
24	0x3bc64380	0.006050527
25	0x3a3b5145	0.0007145594
26	0xbcc2308b	-0.023704788
27	0x3d57ba5a	0.052667953
28	0x3cd91589	0.026499527
29	0xbd8a8f0e	-0.06765567
30	0x3ce9d80c	0.028545402
31	0x3bf911a3	0.0076009794
32	0xbd078272	-0.033083387
33	0x3b873c80	0.004127085
34	0x3d05f7cc	0.03270702
35	0xbd056530	-0.032567203
36	0xbcae39ff	-0.021267889
37	0xbce4c998	-0.027928159
38	0xbd16f6ac	-0.03685634
39	0x3d32919e	0.043595903
40	0xbd275afe	-0.04085826
41	0xbd33f368	-0.043933302
42	0x3c489bc9	0.012244173
43	0xbd78c341	-0.060733084
44	0x3b71fd6e	0.0036924738
45	0x3d3dbb77	0.04632136
46	0x3cc413d4	0.023935236
47	0x3cbc5928	0.022991732
48	0xbd2dc890	-0.0424276
49	0x3d7317b4	0.059348777
50	0xbc6df7c0	-0.0145244
51	0xbd0393db	-0.032123428
52	0x3b6b9080	0.0035944283
53	0x3d78a1bc	0.060701117
54	0x3d5e3d0a	0.05425743
55	0xbd73f1fc	-0.059556946
56	0x3c9dab25	0.019246647
57	0x3d71c6c4	0.05902745
58	0x3ca2b3da	0.01986115
59	0xbd052802	-0.032508858
60	0xbd6aab7b	-0.057292443
61	0x3c8cab20	0.017171443
62	0xbd10c902	-0.035347946
63	0xbd41cfd1	-0.04731733
64	0x3cbbd27d	0.022927517
65	0xbc954621	-0.018221917
66	0xbca1d538	-0.019754991
67	0x3d61f656	0.055166565
68	0xbd5bd46c	-0.05366938
69	0xbc962828	-0.018329695
70	0xbd2bab10	-0.041911185
71	0xbd75d580	-0.060018063
72	0x3d312b8c	0.04325442
73	0x3cdf1e90	0.027236253
74	0xbd4f70fc	-0.05064486
75	0xbb3694e0	-0.0027859733
76	0xbd17887a	-0.03699539
77	0x3ab9d5c0	0.0014178082
78	0xbceced90	-0.028921872
79	0xbd7b0b76	-0.061290227
80	0x3c36945e	0.011143772
81	0x3c8f98e5	0.01752896
82	0xbc1c0490	-0.009522572
83	0xbd1d91ba	-0.038469054
84	0xbcf9af9b	-0.030479243
85	0xbd4b30ae	-0.04960697
86	0xbbf23f80	-0.0073928237
87	0x3d63f412	0.055652685
88	0x3d34628c	0.044039294
89	0x3d7b8524	0.06140627
90	0xbbc8f358	-0.0061325245
91	0x3b268f40	0.0025414973
92	0x3ac49480	0.001499787
93	0x3d79c7a4	0.060981408
94	0x3c627278	0.013821237
95	0xbca47d3c	-0.020079248
96	0x3c758a60	0.014986604
97	0xbd69332f	-0.056933578
98	0x3a421e00	0.0007404983
99	0xbd3530b2	-0.044235893
100	0xbd084d06	-0.03327658
101	0x3d326f78	0.043563336
102	0xbd3c9db4	-0.046048835
103	0x3caede07	0.021346105
104	0xbd725d66	-0.059171103
105	0xbd5537ee	-0.05205529
106	0x3d11f7a2	0.03563655
107	0x3c39d510	0.011342302
108	0x3c4a50d6	0.012348374
109	0xbca98d78	-0.02069734
110	0xbd5f4f27	-0.054518845
111	0xbd71d232	-0.05903835
112	0xbc700748	-0.0146501735
113	0x3c3972df	0.011318891
114	0x3d7a7f7a	0.061156727
115	0xbc8eea6c	-0.017445765
116	0x3cb5dec4	0.02220095
117	0xbcf8814d	-0.030335093
118	0xbd2e48c3	-0.04254986
119	0x3cd79671	0.026316853
120	0x3d680760	0.05664766
121	0x3cc1ac70	0.023641795
122	0x3d059f0d	0.032622386
123	0xbc4c4f52	-0.012470083
124	0x3b99f775	0.0046986886
125	0xbcb08e78	-0.02155231
126	0x3d0007b0	0.03125733
127	0x3ca3aa60	0.019978702
128	0xbcac6564	-0.02104444
129	0x3d613b58	0.054988235
130	0xbd769755	-0.060202915
131	0xbb839e90	-0.004016705
132	0xbd1f99da	-0.038965084
133	0x3d1cf702	0.038321503
134	0x3d1e095c	0.038583145
135	0xbd057e47	-0.03259113
136	0xbb8a7050	-0.0042248145
137	0x3c14fe88	0.009093888
138	0xbc0bb4a8	-0.0085269585
139	0x3d18e19c	0.037324533
140	0x3ca11b38	0.0196663
141	0x3d33a070	0.043854177
142	0xbd15c8b3	-0.036568355
143	0xbd30d4d6	-0.043171726
144	0x3d750dae	0.0598275
145	0xbb3b73c0	-0.0028602928
146	0x3bc689c0	0.0060589015
147	0xbbb05690	-0.005381413
148	0xbb9fa9d0	-0.004872538
149	0xb8d30800	-0.00010062754
150	0x3d2f1fe0	0.042755008
151	0x3c0c6440	0.008568823
152	0x3c0dabc6	0.008646911
153	0xbd30e600	-0.043188095
154	0x3cd03238	0.025414571
155	0x3bc3b9e6	0.0059730886
156	0xbc9a3980	-0.018826246
157	0x3b8d4618	0.0043113343
158	0xbd2ee7fc	-0.042701706
159	0x3b9af075	0.0047283717
160	0x3ba677d0	0.0050802007
161	0x3d66a243	0.05630709
162	0x3d053ac8	0.03252676
163	0x3d1d55d6	0.038411938
164	0xbcef1be7	-0.02918811
165	0xbba00cb8	-0.0048843287
166	0xbd7ba016	-0.061431967
167	0xbd6e362e	-0.05815714
168	0xbc411fe1	-0.011787386
169	0x3d5e30e8	0.05424586
170	0x3d2750b2	0.04084844
171	0xbbe769c2	-0.007062168
172	0xbd826cd0	-0.063684106
173	0x3c58adb0	0.013225004
174	0x3d408404	0.0470009
175	0xba73da40	-0.0009302236
176	0xbd3cf95f	-0.046136256
177	0xbc93a890	-0.018024713
178	0x3cb56244	0.022141583
179	0x3ccb1f24	0.024795122
180	0x3d2255fc	0.039632782
181	0xbd1946c8	-0.037421018
182	0x3bbf8928	0.0058452077
183	0x3d28f47d	0.041248787
184	0x3d19f880	0.037590504
185	0xbc88ca41	-0.016698005
186	0xbd3fd1be	-0.046830885
187	0x3d41fd1c	0.047360525
188	0x3d18232a	0.03714291
189	0xbcff2ac4	-0.031148322
190	0x3d5f0972	0.054452367
191	0xbdb64ad1	-0.08900989
192	0x3d4ac9d1	0.049508873
193	0xbbd56900	-0.006512761
194	0x3c791959	0.015203797
195	0x3c14ffb6	0.009094169
196	0xbc8115a0	-0.015757382
197	0xbc8a0b2d	-0.016851032
198	0xbd038bee	-0.03211587
199	0x3d03468e	0.032049708
200	0x3d75743c	0.059925303
201	0xbd7b6abe	-0.061381094
202	0xbd7efa10	-0.062250197
203	0x3cef69fc	0.029225342
204	0xbc93c974	-0.018040396
205	0x3cc6b648	0.02425684
206	0xbdbc8d5b	-0.09206649
207	0x3d192e0c	0.03739743
208	0xbc423906	-0.011854416
209	0x3b15e120	0.002286978
210	0x3cedd3fc	0.029031746
211	0xbd35f146	-0.04441955
212	0xbd179b90	-0.03701359
213	0x3d151a88	0.036402255
214	0xbc46b8cb	-0.012129019
215	0x3d5c80ac	0.05383365
216	0xbd6168aa	-0.055031456
217	0x3d449653	0.047994923
218	0xbd8611cf	-0.065463655
219	0x3cae5998	0.021282956
220	0xbd0b96f6	-0.034079514
221	0xbd039aaf	-0.03212994
222	0x3b7e5960	0.0038810596
223	0xb8064415	-3.2011496e-05
224	0xbb33c9ef	-0.0027433594
225	0xbc942185	-0.01808239
226	0xbd5dccb6	-0.054150306
227	0xbd294c1c	-0.04133235
228	0xbd65b6ba	-0.056082465
229	0x3ce85de8	0.02836509
230	0xbd5b758e	-0.053578906
231	0xbd43fa5a	-0.047846176
232	0x3d5507b2	0.052009292
233	0x3cb4c89c	0.022068314
234	0xbd68665b	-0.05673824
235	0x3c1d0f10	0.009586111
236	0x3cdc59e8	0.02689834
237	0xbd086129	-0.033295784
238	0xbd50f4ee	-0.051014833
239	0xbd6f76de	-0.05846297
240	0xbd680958	-0.056649536
241	0x3d360924	0.04444231
242	0x3c9a370c	0.018825077
243	0xbd71cfa8	-0.059035927
244	0x3bbc50ea	0.0057469504
245	0xbd17f90e	-0.03710275
246	0x3c371668	0.011174776
247	0xbcddb308	-0.027062908
248	0xbd486746	-0.048926614
249	0x3cd60e00	0.026129723
250	0xbd725d6e	-0.059171133
251	0x3c2dd66f	0.010610207
252	0xbd80a9ef	-0.06282412
253	0x3d0a1abc	0.033716902
254	0x3c5442a1	0.012955339
255	0x3d590a66	0.052988432

bias f4 [256]
0	0xbdc11694	-0.094281346
1	0xbd24af4a	-0.04020623
2	0x3c77e7da	0.015130961
3	0x3d68a109	0.0567942
4	0xbdad3586	-0.084574744
5	0xbccdd9ac	-0.025128208
6	0x3e19cf6b	0.1502053
7	0x3ce6d2e2	0.028176729
8	0x3b16cfc3	0.002301202
9	0xbd648985	-0.05579521
10	0xbd9c58bb	-0.076341115
11	0x3ebfbfb5	0.37450948
12	0xbd451f61	-0.04812563
13	0xbcc28733	-0.023746109
14	0x3d3d6c20	0.046245694
15	0xbd861f99	-0.065489955
16	0xbcdb1db4	-0.026747562
17	0xbd33c62d	-0.043890167
18	0xbc85bdf8	-0.016325936
19	0xbcccda69	-0.02500649
20	0x3db24eaf	0.08706414
21	0x3ee73662	0.45158678
22	0xbd7a98e0	-0.06118095
23	0x3d4b80d5	0.04968341
24	0xbd04c7f8	-0.032417268
25	0xbd88a92d	-0.06672893
26	0xbce3b964	-0.027798362
27	0xbc9f407a	-0.019439925
28	0x3b821dda	0.0039708437
29	0xbc704943	-0.014665904
30	0x3e716877	0.23575006
31	0xbdb5a683	-0.0886965
32	0xbd8a927c	-0.06766221
33	0xbd782e0e	-0.060590796
34	0x3cf39d2a	0.029738028
35	0xbd1b2fb7	-0.0378873
36	0xbd9159f7	-0.070972376
37	0xbc59c107	-0.01329065
38	0xbcf06108	-0.029343143
39	0xbad7a8d8	-0.0016453518
40	0x3e78a4b9	0.24281587
41	0x3d53b447	0.051685598
42	0xbda6ec15	-0.08150498
43	0xbc94cf63	-0.018165296
44	0x3d2f3d24	0.042782918
45	0xbdc0beb2	-0.09411372
46	0x3d9ec765	0.07752875
47	0x3c0546d0	0.008134559
48	0xbd367f98	-0.044555277
49	0xbd2139eb	-0.039361876
50	0xbcb68024	-0.0222779
51	0xbce91c72	-0.028455947
52	0xbcfa53ec	-0.030557595
53	0xb9420864	-0.00018504407
54	0xbd897bc8	-0.067130625
55	0xbd603116	-0.054734312
56	0x3ebc9255	0.36830392
57	0xbceabe75	-0.02865527
58	0x3c9f2fc5	0.019431958
59	0x3d3cf544	0.04613234
60	0xbdd650c9	-0.10464627
61	0x3c8fdcfd	0.01756143
62	0xbd48c34e	-0.049014382
63	0xbc7efd57	-0.015563331
64	0xbd71c384	-0.05902435
65	0xb9c663c3	-0.0003783983
66	0xbcb85d46	-0.022505414
67	0xbd1fae87	-0.0389848
68	0x3dc576fa	0.096418336
69	0x3efee054	0.49780524
70	0xbd471851	-0.048607174
71	0xbe067775	-0.13131507
72	0x3e203f02	0.15649036
73	0x3ef3d9ee	0.47627205
74	0x3d5861e6	0.05282774
75	0x3c991ee4	0.018691488
76	0xbdb3ac75	-0.08773128
77	0x3f0263cc	0.5093353
78	0xbcfc4bc0	-0.03079784
79	0x3beaa179	0.0071603623
80	0xbd8d1e0a	-0.06890495
81	0xbce3df8d	-0.027816558
82	0x3caf9760	0.021434486
83	0xbcdbb037	-0.026817424
84	0xbdb8a8f6	-0.09016602
85	0x3eddb8cc	0.4330505
86	0x3c341015	0.010990162
87	0xbd9ec9be	-0.07753323
88	0xbb63787a	-0.003470926
89	0xbdb08489	-0.08619029
90	0x3dac959b	0.084269725
91	0x3ce50844	0.027958043
92	0x3a2cfd10	0.00065989885
93	0xbd956ab4	-0.07295743
94	0xbd6a0162	-0.057130225
95	0x3ddbd8c7	0.10734706
96	0xbd7eec2c	-0.06223695
97	0x3d2b8a96	0.041880213
98	0x3dbb8090	0.09155381
99	0x3d1a26d9	0.037634704
100	0x3cb80269	0.022462087
101	0xbcb5a402	-0.022172932
102	0xbd06103f	-0.032730337
103	0x3eec2b08	0.4612658
104	0x3ed9ccd9	0.425391
105	0x3c05ef42	0.008174719
106	0x3f1396a0	0.5765171
107	0x3d442102	0.04788304
108	0xbd06a876	-0.0328755
109	0x3d04ec38	0.03245184
110	0xbe198201	-0.14990999
111	0xbcc67980	-0.024227858
112	0x3e24d731	0.16097714
113	0x376de269	1.4179016e-05
114	0xbd2ab267	-0.041674044
115	0x3d93b1b2	0.07211627
116	0x3dca6e64	0.098843366
117	0x3c9170b3	0.017753934
118	0x3c1ed42a	0.009694139
119	0xbd74019e	-0.059571855
120	0xbd8d59a1	-0.06901861
121	0x3d09efd3	0.03367598
122	0xbd45eac0	-0.04831958
123	0xbd88406d	-0.06652913
124	0x3ba0bb40	0.0049051344
125	0x3d10ba48	0.0353339
126	0x3f03820d	0.51370317
127	0x3f13effa	0.5778805
128	0xbdb944b9	-0.09046311
129	0xbd33901c	-0.043838605
130	0x3b14860a	0.0022662901
131	0x3bfb0ae7	0.007661212
132	0x3cff44ae	0.031160679
133	0x3e657868	0.22409213
134	0xbb36504f	-0.0027818864
135	0x3f026a90	0.5094385
136	0x3db20f05	0.08694271
137	0xbce62789	-0.028095024
138	0x3ce72d8a	0.028219957
139	0x3e47040c	0.19435138
140	0xbdbaf389	-0.09128482
141	0xbc78cd7d	-0.015185711
142	0xbd6dea36	-0.05808469
143	0x3b9ed233	0.004846835
144	0xbd717659	-0.058950756
145	0x3ede45f7	0.43412754
146	0xbd03ffad	-0.032226253
147	0xbdb7d88d	-0.08976851
148	0x3c1eb769	0.009687283
149	0x3c61e754	0.013788063
150	0x3b89a48a	0.004200523
151	0xbd9fdff3	-0.07806387
152	0x3e76385d	0.24044938
153	0xbd1f6dbf	-0.03892302
154	0x3e7dcb03	0.24784474
155	0xbd0f9238	-0.035051554
156	0xbbf64de9	-0.007516612
157	0xbdaa73ce	-0.08322869
158	0xbdef121e	-0.116733775
159	0xbd32f821	-0.043693665
160	0x3d45bbaa	0.048274674
161	0x3d0b594a	0.0340207
162	0x3d4e3f62	0.050353415
163	0xbd8942e7	-0.06702214
164	0xbd81031a	-0.0629942
165	0x3e03d01d	0.12872358
166	0xbbfc211b	-0.007694376
167	0x3d0c6f07	0.03428557
168	0xbd8953ac	-0.06705412
169	0x3ecf813f	0.40528294
170	0x3dea2a6d	0.11433873
171	0xbd6afa47	-0.05736759
172	0x3e847ed2	0.25878006
173	0xbcbcbd95	-0.023039619
174	0xbb171f03	-0.0023059256
175	0x3cfbdcec	0.030744992
176	0xbb1dcd4a	-0.002407866
177	0xbd4bf296	-0.049791895
178	0x3d576e8d	0.052595664
179	0xbdcd3deb	-0.100215755
180	0x3c813581	0.015772583
181	0xbc5711c6	-0.013126796
182	0xbdb5a442	-0.0886922
183	0x3cc373ca	0.023858923
184	0x3d3bc4f1	0.045842115
185	0xbda1900e	-0.078888044
186	0x3df080ab	0.117432915
187	0xbc218d36	-0.0098603275
188	0xbd105784	-0.03523971
189	0xbd29dcd4	-0.041470364
190	0x3ef8baf5	0.48580137
191	0xbce50a58	-0.027959034
192	0x3db6e7cd	0.08930931
193	0x3d121721	0.03566659
194	0xbda67120	-0.08127046
195	0xbca45117	-0.020058198
196	0x3d2c172a	0.04201428
197	0x3e2ebfe3	0.17065386
198	0x3c40337d	0.011731026
199	0xbd77f52e	-0.060536556
200	0xbd58d9d0	-0.052942097
201	0xbb5ade70	-0.0033396743
202	0x3cbaf6d3	0.022822773
203	0xbbe17dce	-0.006881452
204	0x3bf77774	0.0075520817
205	0x3e539525	0.20662363
206	0xbd0252ef	-0.031817373
207	0x3d728697	0.059210386
208	0xbd32250e	-0.04349237
209	0x3da5d063	0.08096387
210	0x3d62a44e	0.055332474
211	0xbbbf1e28	-0.0058324523
212	0xbdcf5746	-0.10124068
213	0xbe5e5fe7	-0.21716271
214	0x3d1f4f0c	0.038893744
215	0x3c8739ca	0.016507048
216	0xbd27ef9c	-0.040999994
217	0xbbedd15a	-0.0072576227
218	0xbd008bcf	-0.031383332
219	0xbdb88e97	-0.09011572
220	0xbd51b1f1	-0.05119509
221	0x3b411f3d	0.0029468082
222	0x3d9479bf	0.07249784
223	0x3e7c0309	0.24610533
224	0x3ba51b7e	0.0050386777
225	0xbca82065	-0.02052326
226	0xbd40d746	-0.0470803
227	0xbcceca24	-0.025242873
228	0x3ef934b2	0.48673016
229	0x3e4aa632	0.19789961
230	0xbd8a1bdc	-0.06743595
231	0xbd660848	-0.05616024
232	0xbddaaeb4	-0.10677853
233	0x3e8baaf3	0.2727886
234	0xbd241093	-0.04005487
235	0xbcf35195	-0.029701987
236	0x3cd0086a	0.025394637
237	0x3d5c38ec	0.053765222
238	0xbd64987c	-0.055809483
239	0xbd148bbd	-0.036266077
240	0xbdd287f2	-0.10279836
241	0x3cfdd31a	0.03098445
242	0xbd01fb7a	-0.031733967
243	0xbcac1148	-0.021004334
244	0x3bb0dabb	0.0053971685
245	0x3d919f03	0.07110407
246	0xbda4d533	-0.08048477
247	0xbcd19445	-0.025583396
248	0xbd6d4b20	-0.057932973
249	0x3ce6eb3a	0.028188337
250	0x3caaf7fa	0.020870198
251	0x3cd1a843	0.025592929
252	0xbbb45e82	-0.0055044303
253	0xbd264aa2	-0.04059852
254	0xbccf7a42	-0.025326852
255	0xbe5a18df	-0.2129855

weight f4 [200, 256]
0	0xbd02a1b8	-0.03189251
1	0x3d59f522	0.053212292
2	0xbbd33485	-0.00644547
3	0xbd1fa336	-0.03897401
4	0xbda2a4da	-0.07941599
5	0xbd1b11ba	-0.037858702
6	0xbcb55050	-0.022133023
7	0xbc3a8ada	-0.011385644
8	0x3c7f844b	0.015595506
9	0x3c213dfd	0.009841439
10	0x3bb3092c	0.00546374
11	0x3d171f53	0.036895107
12	0xbd59b3be	-0.05314993
13	0x3d07d71d	0.033164132
14	0x3cf2aa0f	0.029622106
15	0x3d08551e	0.0332843
16	0xbd68605d	-0.056732524
17	0xbd0c5378	-0.03425929
18	0xbc6e72b3	-0.014553714
19	0xbc11a1bc	-0.008888658
20	0xbac8ecc5	-0.0015329352
21	0x3d1d1877	0.03835341
22	0xbd34842c	-0.04407136
23	0xbd45814e	-0.048219018
24	0xbd7f51b0	-0.062333763
25	0xbc829d77	-0.015944226
26	0xbcadaaef	-0.021199672
27	0xbd48f061	-0.04905737
28	0x3d3d8c21	0.046276215
29	0x3cfc54c9	0.030802147
30	0x3cde1fc4	0.027114756
31	0xbce93021	-0.028465332
32	0x3ce3769a	0.027766515
33	0xbd71f89d	-0.059074987
34	0x3b81e468	0.0039639957
35	0xbd015048	-0.031570703
36	0xbc84e02f	-0.01622018
37	0x3a9c6237	0.0011931126
38	0xbaa1e652	-0.0012351966
39	0xbd6163af	-0.055026706
40	0xbcf1d80a	-0.02952196
41	0xbd1fda53	-0.03902657
42	0x3bdeef91	0.006803461
43	0x3cad75fc	0.021174423
44	0x3ca15fb4	0.019698955
45	0xbbc04c09	-0.005868439
46	0xbc16855b	-0.009187068
47	0x3d173ea1	0.036924962
48	0x3b936da9	0.0044991565
49	0xbd520ad2	-0.05127985
50	0xbc4c8fbd	-0.012485442
51	0x3c32e576	0.010918966
52	0x3d06c1aa	0.032899536
53	0xbc7e1297	-0.015507362
54	0x3ccb1f89	0.02479531
55	0xbcc33098	-0.023826882
56	0x3dcd42ee	0.100225314
57	0xbd94efbe	-0.0727229
58	0x3d94614e	0.07245122
59	0xbbff96f0	-0.0077999756
60	0xbd4d7787	-0.05016282
61	0xbda1a61f	-0.07893013
62	0xbd60f44e	-0.054920487
63	0xbd07d3df	-0.03316104
64	0xbb240212	-0.0025025648
65	0xbcb707ee	-0.022342648
66	0x3bbbcc50	0.005731143
67	0xbc7d5c32	-0.015463876
68	0xbbba3366	-0.0056823967
69	0x3db3bbb2	0.087760344
70	0xbc069848	-0.008215018
71	0xbb3db175	-0.0028944884
72	0x3d3073f8	0.043079346
73	0x3d7ef1c7	0.062242296
74	0x3cf2dab8	0.029645309
75	0xbd8c94ea	-0.068643406
76	0xbc58d2c4	-0.013233844
77	0x3c0970ba	0.0083886925
78	0xba61b2b8	-0.00086097
79	0x3c4580b3	0.01205461
80	0xbd220f8a	-0.0395656
81	0x3d0c23e5	0.03421392
82	0x3d3682cc	0.04455833
83	0xbc73c58c	-0.014878642
84	0x3cd8508c	0.026405595
85	0x3b9e32fb	0.0048278547
86	0x3d45b8ed	0.048272062
87	0x3d7c2f18	0.06156835
88	0x3d224086	0.039612316
89	0xbc963af0	-0.01833865
90	0x3d819ba3	0.063285135
91	0xbd147c88	-0.036251575
92	0x3d2e4521	0.042546395
93	0xbc05784b	-0.008146356
94	0x3d7984f8	0.060917825
95	0xbc036a8c	-0.008021008
96	0x3cb49c83	0.022047287
97	0xbd5f38fd	-0.054497708
98	0x3d1553d1	0.036456887
99	0xbcba0035	-0.022705177
100	0xbd20fd95	-0.039304335
101	0x3ac5cadb	0.0015090363
102	0xbd3574dd	-0.044300903
103	0x3d5bb718	0.05364141
104	0x3d9e144d	0.07718716
105	0xbca4dba7	-0.02012427
106	0x3d9f12c4	0.07767251
107	0x3cade39c	0.021226697
108	0x3c8612a0	0.016366303
109	0x3d405b9a	0.046962358
110	0x3d18c540	0.037297487
111	0xbc72d58a	-0.0148214195
112	0x3c084acd	0.008318615
113	0xbbf4118f	-0.007448382
114	0x3d5bfb5c	0.05370651
115	0xba81d938	-0.0009906655
116	0x3c3e886c	0.011629205
117	0x3d6c2227	0.057649758
118	0x3d03e601	0.03220177
119	0x3d6aac3b	0.057293158
120	0x3cdd76e7	0.027034236
121	0xbcb2d778	-0.02183126
122	0xbd1f8c1e	-0.038951986
123	0xbcc0f3dd	-0.023553783
124	0xbc62fcec	-0.013854247
125	0x3cf159f5	0.02946184
126	0x3d413679	0.04717109
127	0xbe38c60f	-0.18044303
128	0xbcf6724c	-0.030083798
129	0x3d23f286	0.04002621
130	0xbce098a6	-0.027416538
131	0x3c8eee17	0.017447514
132	0x3c467e19	0.012115025
133	0x3c4ce00e	0.012504591
134	0x3c231905	0.009954696
135	0x3d2f5040	0.04280114
136	0x3d32d1f4	0.04365726
137	0xbd440492	-0.04785592
138	0x3ca906d1	0.020633133
139	0x3c5f3045	0.013622348
140	0x3cb109bf	0.021611093
141	0xbdb0e19c	-0.086367816
142	0xb99d68d3	-0.00030023474
143	0xbc579321	-0.013157637
144	0xbda20ae6	-0.07912235
145	0xbd39dc63	-0.045376193
146	0x3ca87b78	0.020566687
147	0x3cf4d59f	0.029887019
148	0xbd19d071	-0.0375523
149	0xbd415084	-0.047195926
150	0xbc9cdec0	-0.019149184
151	0xbcba231f	-0.022721825
152	0x3b8439d8	0.004035216
153	0xbce58ffc	-0.028022759
154	0xbdc3fcc8	-0.095696986
155	0x3ca0b089	0.019615429
156	0x3d08b6cc	0.033377454
157	0xbd0648f5	-0.03278442
158	0x3d01580b	0.031578105
159	0x3c6e20e5	0.01453421
160	0x3c620d00	0.013797045
161	0xbc173db0	-0.009231016
162	0x3bfadc31	0.0076556434
163	0x3cddcdbc	0.02707564
164	0x3b109906	0.0022063865
165	0x3cd8a213	0.02644447
166	0xba430656	-0.0007439604
167	0xbd89a23b	-0.06720396
168	0x3d611e21	0.054960374
169	0xbd1a81f8	-0.037721604
170	0x3d1f09ab	0.03882758
171	0x3ac6b08e	0.0015158819
172	0x3d7fea74	0.06247945
173	0xbb36fe7a	-0.0027922676
174	0xbd1a0126	-0.03759875
175	0x3b42eeef	0.0029744466
176	0xba1b313a	-0.0005920116
177	0x3d6df62a	0.05809609
178	0x3d18b41f	0.03728115
179	0xbd88448e	-0.06653701
180	0x3b5ff017	0.0034170204
181	0x3d388582	0.045049198
182	0xbb9eefd7	-0.0048503685
183	0xbd8a6cca	-0.06759031
184	0xbd1c4b09	-0.038157497
185	0xbd4c26ce	-0.049841695
186	0x3c733232	0.01484351
187	0xbd96f181	-0.07370282
188	0x3d51f156	0.051255547
189	0x3ccbb8e2	0.024868432
190	0x3c7deace	0.015497876
191	0xbc1d5979	-0.0096038515
192	0xbd149b96	-0.03628119
193	0xbd0c30ef	-0.034226354
194	0x3daa6050	0.083191514
195	0xbd939a54	-0.0720717
196	0xbcf0f3e2	-0.029413167
197	0xbd3a609f	-0.0455023
198	0x3c566fa5	0.013088142
199	0xbd0af9d8	-0.033929676
200	0x3ce0e4c4	0.027452834
201	0x3be01c62	0.006839321
202	0xbba330f9	-0.004980203
203	0x3cf72f78	0.030174002
204	0x3d8038ba	0.0626082
205	0xbccca8be	-0.024982806
206	0xbcbd2836	-0.023090463
207	0xbb5d7b3d	-0.003379538
208	0x3d75e2dc	0.060030803
209	0xbc093167	-0.008373595
210	0x3ce9d1f0	0.028542489
211	0xbd063819	-0.032768343
212	0xbcc2352f	-0.023707
213	0xbaf0be26	-0.0018367216
214	0x3d62cd9a	0.05537186
215	0x3ccf3b6d	0.025296891
216	0x3d28e582	0.0412345
217	0x3b42c859	0.0029721467
218	0x3d8bd079	0.068268724
219	0x3d56acc9	0.052410875
220	0x3d34d891	0.044151846
221	0xbd02dc53	-0.0319484
222	0x3c431905	0.011907821
223	0xbbbdf7d3	-0.005797365
224	0x3d413924	0.047173634
225	0x3c816302	0.01579428
226	0xbaef4240	-0.0018253997
227	0x3cd441d8	0.025910303
228	0x3e0d6490	0.13807893
229	0x3c0b01d3	0.008484322
230	0xbc95293a	-0.018208135
231	0xbd5d3dcb	-0.05401401
232	0xbc1ff0b0	-0.009761974
233	0x3ce625ae	0.028094139
234	0xbca2cb79	-0.019872414
235	0xbd0e5d70	-0.034757078
236	0xbd2987a2	-0.041389115
237	0x3d31cec9	0.043410096
238	0xbba8bc74	-0.0051494185
239	0xbd015328	-0.031573445
240	0xbd4172b1	-0.04722852
241	0xbd69815e	-0.05700814
242	0x3d3095e8	0.04311171
243	0x3cc8034e	0.024415638
244	0x3d4f65e1	0.05063427
245	0xbcd2b9d8	-0.025723383
246	0x3c8d7110	0.017265826
247	0x3d806b60	0.0627048
248	0x3c934d24	0.01798112
249	0x3cea3839	0.028591262
250	0xbd149cef	-0.036282476
251	0xbd2fe172	-0.04293961
252	0xbc1e8bf0	-0.009676918
253	0x3d365752	0.04451687
254	0xbacd37a4	-0.0015656841
255	0xbd82c4b0	-0.063851714

bias f4 [200]
0	0x3ed2f05c	0.41199005
1	0x3ef6a054	0.48169196
2	0x3ec7eb7d	0.3904685
3	0x3efccf98	0.4937713
4	0x3ebb3f40	0.36571693
5	0x3f139f41	0.5766488
6	0x3ed26180	0.41090012
7	0x3f0deb04	0.5543673
8	0x3eea8e63	0.45811757
9	0x3ee18b59	0.44051626
10	0x3ec4abf4	0.3841244
11	0x3f0e7ce2	0.55659306
12	0x3ef73b46	0.4828741
13	0x3ef0b8e9	0.47016075
14	0x3ec05e21	0.37571815
15	0x3f10a4d8	0.5650153
16	0x3ecc4420	0.39895725
17	0x3efa9b8c	0.48946798
18	0x3ed4881c	0.41510093
19	0x3f163e70	0.5868902
20	0x3f130a8f	0.57437986
21	0x3ed9d7bb	0.42547402
22	0x3f164b4f	0.5870866
23	0x3ec524ea	0.38504726
24	0x3f066a6e	0.5250615
25	0x3ed721ae	0.42017883
26	0x3ede2f70	0.43395567
27	0x3ec358c6	0.38153666
28	0x3f02edd5	0.5114415
29	0x3ec6b641	0.38810924
30	0x3f11ac60	0.5690365
31	0x3eda7b72	0.42672306
32	0x3f01aba0	0.50652504
33	0x3eb9c127	0.36280176
34	0x3ef05125	0.46936908
35	0x3ef38028	0.47558713
36	0x3f06aa1e	0.5260333
37	0x3edc00e7	0.42969438
38	0x3f005922	0.50136006
39	0x3ed7d432	0.4215408
40	0x3f035118	0.51295614
41	0x3f1a4f41	0.6027718
42	0x3f15ac85	0.5846637
43	0x3f005cb2	0.5014144
44	0x3f176793	0.59142417
45	0x3f135ad8	0.5756049
46	0x3f178012	0.59179795
47	0x3f0abf2d	0.5419796
48	0x3eefeddf	0.4686117
49	0x3ef25d10	0.47336626
50	0x3f07c679	0.5303722
51	0x3f09ee5f	0.5387935
52	0x3f1193fd	0.5686644
53	0x3f065cc1	0.5248528
54	0x3ee076fb	0.43840775
55	0x3f1b593c	0.60683036
56	0x3eed978e	0.4640469
57	0x3f0209f0	0.50796413
58	0x3efcce15	0.49375978
59	0x3f03d915	0.51503116
60	0x3f23fe67	0.6406006
61	0x3ed1dce7	0.40988848
62	0x3f16245a	0.5864922
63	0x3ece38db	0.40277752
64	0x3f0f7fa0	0.56054115
65	0x3eeba290	0.46022463
66	0x3f1b4648	0.60654116
67	0x3eff55d1	0.4987016
68	0x3f1b20e6	0.60597074
69	0x3ed735ec	0.42033327
70	0x3f0d7e46	0.552708
71	0x3ee75ab4	0.45186388
72	0x3f1fffe9	0.6249986
73	0x3ec156af	0.37761447
74	0x3f2dae96	0.6784452
75	0x3ef02671	0.46904328
76	0x3f211c33	0.62933654
77	0x3ec27afb	0.37984452
78	0x3f1569e7	0.5836472
79	0x3eceeb1d	0.40413752
80	0x3f1cbc40	0.61224747
81	0x3ec3c0a6	0.38232917
82	0x3f1bdacd	0.6088074
83	0x3eda36a5	0.42619815
84	0x3f1e7cec	0.61909366
85	0x3ecf8387	0.40530035
86	0x3f2e543b	0.68097275
87	0x3edc56a2	0.43034846
88	0x3f10a4ef	0.5650167
89	0x3efbf8c7	0.4921324
90	0x3f2163e4	0.63043046
91	0x3ee76b0a	0.45198852
92	0x3f22f840	0.6366005
93	0x3ee92113	0.45533046
94	0x3f205e11	0.62643534
95	0x3ed0bd6f	0.40769526
96	0x3f2c51c9	0.67312294
97	0x3ee8f393	0.45498332
98	0x3f2d3000	0.6765137
99	0x3ee204b5	0.44144216
100	0x3f19aa9c	0.60025954
101	0x3ef232f1	0.4730449
102	0x3f20485f	0.6261043
103	0x3ede92f3	0.43471488
104	0x3f19d7e6	0.6009506
105	0x3eea2a95	0.45735613
106	0x3f195815	0.5990003
107	0x3ee42fa8	0.4456761
108	0x3f24fa5f	0.64444536
109	0x3f000665	0.5000976
110	0x3f191ce7	0.59809726
111	0x3ee9622d	0.45582715
112	0x3f22ffab	0.6367137
113	0x3edd02c2	0.43166167
114	0x3f29722e	0.6618985
115	0x3edc5ef7	0.43041202
116	0x3f29b904	0.66297936
117	0x3eb5ca16	0.35505742
118	0x3f1b00b1	0.6054793
119	0x3ecb1fca	0.3967269
120	0x3f280082	0.65625775
121	0x3ed4ff60	0.41601086
122	0x3f33ec12	0.7028209
123	0x3eeb85a0	0.46000385
124	0x3f17f0a8	0.5935159
125	0x3ecb784c	0.39740217
126	0x3f28c14d	0.65919954
127	0x3eda5f2c	0.42650735
128	0x3f1a0de3	0.6017744
129	0x3ebd5075	0.36975446
130	0x3f170158	0.58986425
131	0x3edfc9fd	0.43708792
132	0x3f18ef61	0.59740263
133	0x3ee44a01	0.4458771
134	0x3f2755d9	0.6536537
135	0x3ec54b6d	0.38534108
136	0x3f1d7ceb	0.61518735
137	0x3eefbe80	0.46825027
138	0x3f1baba1	0.6080876
139	0x3ed57635	0.41691747
140	0x3f2055a9	0.6263071
141	0x3ee0660c	0.43827856
142	0x3f2cd22d	0.675082
143	0x3ecfceb8	0.405874
144	0x3f1345d8	0.5752845
145	0x3ebdb194	0.37049544
146	0x3f2b4b11	0.6691142
147	0x3ec8a366	0.39187163
148	0x3f18f863	0.5975401
149	0x3ed9b57d	0.42521277
150	0x3f272087	0.6528401
151	0x3edf6221	0.43629554
152	0x3f1e0dbe	0.6173972
153	0x3ed4c660	0.41557598
154	0x3f290a6a	0.66031516
155	0x3eebe889	0.46075848
156	0x3f1f8cb2	0.6232406
157	0x3eebc0e9	0.46045616
158	0x3f31d6d7	0.69468445
159	0x3eef8726	0.46782798
160	0x3f44dbe3	0.7689802
161	0x3f177398	0.5916076
162	0x3f486307	0.78276104
163	0x3f180722	0.59385884
164	0x3f4c2559	0.7974449
165	0x3f209909	0.62733513
166	0x3f33d78a	0.7025076
167	0x3f290044	0.6601603
168	0x3f4108b0	0.7540388
169	0x3f2145da	0.6299721
170	0x3f40c04a	0.7529341
171	0x3f2f40a7	0.68458027
172	0x3f2f9a47	0.68594784
173	0x3f2210aa	0.6330668
174	0x3f4189a9	0.7560068
175	0x3f2f7b8e	0.68547904
176	0x3f33b523	0.7019827
177	0x3f262f30	0.6491575
178	0x3f33b8b0	0.70203686
179	0x3f33a673	0.70175856
180	0x3f501a78	0.8129039
181	0x3f2563e2	0.64605534
182	0x3f51251a	0.8169724
183	0x3f286f9b	0.65795296
184	0x3f4c3695	0.79770786
185	0x3f224f69	0.6340242
186	0x3f34463a	0.7041966
187	0x3f2c9c22	0.6742574
188	0x3f4d9738	0.80308867
189	0x3f2c35cf	0.67269605
190	0x3f40d307	0.75322
191	0x3f376e68	0.7165284
192	0x3f3f7323	0.7478506
193	0x3f2caa07	0.6744694
194	0x3f42e71f	0.7613391
195	0x3f3767b1	0.71642596
196	0x3f3caebd	0.7370413
197	0x3f34f946	0.7069286
198	0x3f4005ba	0.7500874
199	0x3f2412b4	0.6409104
